…
 [ 0.0086517   0.0086517   1.          0.00920968  0.00940356]
 [ 0.00989838  0.00989838  0.00920968  1.          0.01550386]
 [ 0.01022077  0.01022077  0.00940356  0.01550386  1.        ]]
Building model...
Building "vgg16" model.
--------------------------------------------------------------------------------
Initial input shape: (None, 3, 224, 224)
--------------------------------------------------------------------------------
Layer (name)                  Output Shape                  Param #             
--------------------------------------------------------------------------------
ZeroPadding2D (zeropadding2d) (None, 3, 226, 226)           0                   
Convolution2D (convolution2d) (None, 64, 224, 224)          1792                
ZeroPadding2D (zeropadding2d) (None, 64, 226, 226)          0                   
Convolution2D (convolution2d) (None, 64, 224, 224)          36928               
MaxPooling2D (maxpooling2d)   (None, 64, 112, 112)          0                   
ZeroPadding2D (zeropadding2d) (None, 64, 114, 114)          0                   
Convolution2D (convolution2d) (None, 128, 112, 112)         73856               
ZeroPadding2D (zeropadding2d) (None, 128, 114, 114)         0                   
Convolution2D (convolution2d) (None, 128, 112, 112)         147584              
MaxPooling2D (maxpooling2d)   (None, 128, 56, 56)           0                   
ZeroPadding2D (zeropadding2d) (None, 128, 58, 58)           0                   
Convolution2D (convolution2d) (None, 256, 56, 56)           295168              
ZeroPadding2D (zeropadding2d) (None, 256, 58, 58)           0                   
Convolution2D (convolution2d) (None, 256, 56, 56)           590080              
ZeroPadding2D (zeropadding2d) (None, 256, 58, 58)           0                   
Convolution2D (convolution2d) (None, 256, 56, 56)           590080              
MaxPooling2D (maxpooling2d)   (None, 256, 28, 28)           0                   
ZeroPadding2D (zeropadding2d) (None, 256, 30, 30)           0                   
Convolution2D (convolution2d) (None, 512, 28, 28)           1180160             
ZeroPadding2D (zeropadding2d) (None, 512, 30, 30)           0                   
Convolution2D (convolution2d) (None, 512, 28, 28)           2359808             
ZeroPadding2D (zeropadding2d) (None, 512, 30, 30)           0                   
Convolution2D (convolution2d) (None, 512, 28, 28)           2359808             
MaxPooling2D (maxpooling2d)   (None, 512, 14, 14)           0                   
ZeroPadding2D (zeropadding2d) (None, 512, 16, 16)           0                   
Convolution2D (convolution2d) (None, 512, 14, 14)           2359808             
ZeroPadding2D (zeropadding2d) (None, 512, 16, 16)           0                   
Convolution2D (convolution2d) (None, 512, 14, 14)           2359808             
ZeroPadding2D (zeropadding2d) (None, 512, 16, 16)           0                   
Convolution2D (convolution2d) (None, 512, 14, 14)           2359808             
MaxPooling2D (maxpooling2d)   (None, 512, 7, 7)             0                   
Flatten (flatten)             (None, 25088)                 0                   
Dense (dense)                 (None, 4096)                  102764544           
Dropout (dropout)             (None, 4096)                  0                   
Dense (dense)                 (None, 4096)                  16781312            
Dropout (dropout)             (None, 4096)                  0                   
Dense (dense)                 (None, 5)                     20485               
--------------------------------------------------------------------------------
Total params: 134281029
--------------------------------------------------------------------------------
Done in 26.47 seconds.
Training model...
Epoch 1/50
100/100 [==============================] - 2s
val loss: 1.54138362408
acc: 0.51
510s - loss: 1.6328
Epoch 2/50
100/100 [==============================] - 2s
…
